logs/rough_go2/exported/policies/policy_1.pt (torch, 774037 bytes, 8 tensors)

weight f4 [512, 48]
-0.14742121 -0.13467607 -0.035108387 0.15327594 0.30931318 -0.3442608 -0.7882219 -0.26016733
0.03885014 0.089704365 -0.00078976346 0.38254562 0.23878048 0.3034266 -0.13039383 0.24849574
0.041901585 -0.2895412 -0.05668155 0.14331923 -0.006200282 -0.07647138 0.27710286 0.039745297
0.42215592 0.35978183 0.083462864 0.2961768 -0.4269496 -0.07500642 0.21548882 0.08434343
0.049005933 0.06804958 0.10199467 0.17517357 0.038847152 -0.013862385 -0.043419704 0.064237736
0.017223075 0.045145757 -0.08524557 -0.08235248 -0.054079816 -0.021537788 0.06398052 -0.05027286
0.09720897 0.070025824 0.05405573 -0.1897869 0.116818435 -0.096476614 0.061839715 0.22264867
0.1853988 0.009890836 -0.040211987 -0.33467188 -0.23844516 0.07526751 -0.09717372 -0.25565526
-0.2543549 0.11400837 -0.46770605 -0.0020418193 0.08697741 -0.29539058 -0.13536713 -0.23635674
0.18916075 0.29201227 -0.087484755 0.019741695 -0.16173266 0.038008306 0.011695899 0.04264417
-0.0057882364 -0.15787688 0.020762337 0.15019847 -0.11569706 0.049740326 0.10937625 0.039247908
0.09511049 0.04508866 -0.021677459 -0.071865685 0.047553223 -0.050021667 -0.039568722 -0.008406358
-0.16069195 -0.1632925 -0.0753243 0.14594594 -0.025520299 0.18594933 -0.06908465 -0.25491184
-0.017043909 0.10106698 0.08822038 -0.3604597 0.33275616 0.038738705 0.32915184 0.14426781
-0.18807775 -0.3761975 -0.014516167 -0.22468425 -0.011803296 -0.023517853 -0.08490804 0.28398392
0.0053390255 -0.09116733 0.022644743 -0.0099752555 -0.3207475 -0.012874676 0.05366389 0.12373004
-0.24565986 0.06345052 -0.11402734 -0.26691437 0.03730554 -0.011433438 -0.10331704 -0.010891592
-0.0015314088 0.06409307 -0.05076003 -0.010913938 -0.021139925 -0.03747068 0.056783997 -0.044252682
-0.12138612 0.021852264 -0.09583413 0.0041189054 -0.33893552 -0.06855041 -0.06850148 0.37686837
0.024640761 0.089546666 -0.19809437 0.32747704 -0.0965615 -0.2779124 0.17153126 -0.23601107
0.21233979 0.038689807 -0.38656005 0.14454699 0.102348775 -0.08738474 -0.41013333 0.28324482
-0.039624635 -0.1799878 -0.35326815 0.18547592 0.2769796 0.0031423378 -0.13079277 -0.11221684
-0.2862846 -0.13628088 -0.3470131 -0.014546639 -0.02569927 -0.08972937 -0.115808934 0.05877859
-0.022999259 -0.050483264 -0.0035182827 -0.002970516 0.01721305 0.00827438 0.0012958163 -0.13111718
0.1438475 0.13314232 -0.009112943 -0.12580344 -0.2863564 -0.09387654 -0.3381957 0.42714837
-0.013267516 -0.0782064 -0.11254797 -0.3136531 0.077521384 -0.070559226 -0.13749504 -0.13254417
0.1681281 0.15743254 -0.30036688 -0.08035886 0.15987362 -0.096563146 -0.19281572 0.47237223
0.26495308 0.044021133 -0.21272509 -0.054588083 0.011076236 -0.2282995 -0.08217767 -0.08842232
-0.16501366 0.13026541 0.010978007 0.047782894 0.040964767 0.025757052 0.032317992 0.038341623
0.029725965 0.053640388 -0.09411338 -0.10147386 -0.009670943 0.02013661 0.10436958 -0.006346603
0.09630286 -0.09422074 0.21142752 0.0033655723 -0.04953837 -0.101535656 -0.5028014 0.5084965
0.02302226 0.0648746 -0.09173295 -0.49327227 0.29387632 0.14034285 -0.033795774 0.38723785
00000000: 96f5 16be 86e8 09be d0cd 0fbd 5ef4 1c3e
00000010: 4c5e 9e3e f442 b0be e9c8 49bf a734 85be
00000020: 5321 1f3d ecb6 b73d 2108 4fba 05dd c33e
00000030: df82 743e bb5a 9b3e f685 05be ab75 7e3e
00000040: ffa0 2b3d bf3e 94be ea2a 68bd 47c2 123e
00000050: bc2b cbbb 079d 9cbd 6de0 8d3e f7cb 223d
00000060: d224 d83e 5335 b83e 94ee aa3d 7ca4 973e
00000070: 2399 dabe f79c 99bd 1aa9 5c3e 40bc ac3d
00000080: 72ba 483d 945d 8b3d 95e2 d03d b360 333e
00000090: 311e 1f3d 0f1f 63bc dcd8 31bd 138f 833d
000000a0: 6817 8d3c c2ea 383d 3b95 aebd 6ba8 a8bd
000000b0: cc82 5dbd 0470 b0bc 3808 833d eaea 4dbd
000000c0: 7f15 c73d b369 8f3d 8b69 5d3d 7f57 42be
000000d0: 813e ef3d 8895 c5bd a44b 7d3d 03fe 633e
000000e0: 2fd9 3d3e 2c0d 223c 53b5 24bd 1d5a abbe
000000f0: f82a 74be da25 9a3d 0403 c7bd 3fe5 82be
00000100: ce3a 82be 387d e93d 2b77 efbe 0bd0 05bb
00000110: 3621 b23d 6f3d 97be ae9d 0abe 8007 72be
00000120: 5bb3 413e a282 953e 352b b3bd 56b9 a13c
00000130: 3f9d 25be 99ae 1b3d 28a0 3f3c a7ab 2e3d
00000140: 3fab bdbb 7aaa 21be c715 aa3c a1cd 193e
00000150: 95f2 ecbd 83bc 4b3d a800 e03d 6ac2 203d
00000160: 4ac9 c23d e3ae 383d ed94 b1bc 512e 93bd
00000170: 2bc7 423d 85e3 4cbd d012 22bd d2ba 09bc
00000180: 6e8c 24be 2636 27be a043 9abd da72 153e
00000190: f20f d1bc 8069 3e3e 417c 8dbd ce83 82be
000001a0: ab9f 8bbc 34fc ce3d e3ac b43d 2c8e b8be
000001b0: 045f aa3e 7aac 1e3d 9786 a83e f1ba 133e
000001c0: 7497 40be f59c c0be 38d5 6dbc a113 66be
000001d0: 9d62 41bc 83a8 c0bc 44e4 adbd 5766 913e
000001e0: fef2 ae3b f0b5 babd 7881 b93c 416f 23bc
000001f0: 0439 a4be 4ef0 52bc abce 5b3d 2d66 fd3d
00000200: 428e 7bbe 59f2 813d 2b87 e9bd 00a9 88be
00000210: b2cd 183d 5153 3bbc e297 d3bd a672 32bc
00000220: 8db9 c8ba 3a43 833d c0e9 4fbd 60d0 32bc
00000230: a32d adbc db7a 19bd 5696 683d 4d42 35bd
00000240: 4999 f8bd 8503 b33c af44 c4bd e2f7 863b
00000250: f588 adbe 2864 8cbd 814a 8cbd e4f4 c03e
00000260: 6cdb c93c 3e64 b73d 40d9 4abe 12ab a73e
00000270: 09c2 c5bd 894a 8ebe e4a5 2f3e e3ac 71be
00000280: 9a6f 593e 3479 1e3d 33eb c5be 2004 143e
00000290: 3c9c d13d c5f6 b2bd fffc d1be 7705 913e
000002a0: 714d 22bd b94e 38be 90df b4be 66ed 3d3e
000002b0: 45d0 8d3e aeef 4d3b 8aee 05be f1d1 e5bd
000002c0: e593 92be 378d 0bbe b3ab b1be 0755 6ebc
000002d0: 4787 d2bc 08c4 b7bd 3c2d edbd d2c1 703d
000002e0: f168 bcbc 8ac7 4ebd fd92 66bb fdac 42bb
000002f0: 6202 8d3c 4491 073c 61d8 a93a 9543 06be
00000300: c24c 133e 7656 083e 744e 15bc 9ed2 00be
00000310: 4e9d 92be 5842 c0bd fd27 adbe 31b3 da3e
00000320: ff5f 59bc ad2a a0bd 8d7f e6bd 2497 a0be
00000330: 88c3 9e3d 5b81 90bd 80cb 0cbe a9b9 07be
00000340: c629 2c3e ff35 213e b0c9 99be 3093 a4bd
00000350: e9b5 233e e6c2 c5bd 7c71 45be c6da f13e
00000360: eea7 873e 814f 343d 9bd4 59be c197 5fbd
00000370: 1a79 353c 58c7 69be c44c a8bd c316 b5bd
00000380: 57f9 28be 4c64 053e 19dd 333c ffb7 433d
00000390: acca 273d 7400 d33c df5f 043d 1b0c 1d3d
000003a0: de83 f33c 06b6 5b3d 84be c0bd 87d1 cfbd
000003b0: e072 1ebc 88f5 a43c b8bf d53d 2af7 cfbb
000003c0: 6f3a c53d cef6 c0bd 7580 583e ef90 5c3b
000003d0: bfe8 4abd edf1 cfbd 98b7 00bf d42c 023f
000003e0: 2e99 bc3c f9dc 843d 7cde bbbd 2f8e fcbe
000003f0: f576 963e 09b6 0f3e 706d 0abd 0a44 c63e

bias f4 [512]
-0.08827903 -0.2997621 0.18843576 -0.03270881 0.09747486 -0.12596025 -0.14848223 -0.113189705
-0.022886854 0.028757831 -0.07413083 0.07677497 0.066252366 -0.024368003 -0.10125229 -0.14187132
-0.059170883 -0.001629539 -0.179393 0.0157077 -0.020946573 -0.09721815 -0.2123735 -0.08720856
-0.057664458 0.069541454 -0.14617324 0.018839765 -0.0005299075 0.11269415 0.021998025 -0.144486
-0.07715604 -0.036055874 -0.16492034 0.058230594 0.049941637 0.076222114 0.09932555 -0.04492952
0.038655188 -0.120827496 -0.049035653 0.11976873 -0.115152195 0.029606156 -0.21292925 -0.17551464
-0.11026702 -0.010996575 -0.16514672 -0.07669026 0.13614872 -0.12839296 -0.07039086 0.05419955
0.06158024 -0.11400304 0.03753023 -0.016192079 0.054291893 0.024214497 0.06534488 0.16616343
-0.03714049 0.18131173 -0.019493656 0.071486175 0.060217466 0.06865518 -0.093396984 -0.14468858
-0.13783996 0.033998888 -0.19622509 0.065605566 -0.11987961 -0.07065464 0.1035369 -0.15514831
0.052936748 0.062352583 -0.0026350124 -0.017341655 -0.10171349 -0.04988975 0.010159202 -0.02277678
-0.13591318 0.06615829 -0.057779856 0.13572466 -0.008121329 -0.15251547 -0.049716856 -0.009726248
-0.0040436997 0.07434458 -0.08975242 -0.027808575 -0.12983704 -0.11835007 0.063428074 -0.071773455
0.051297195 -0.06863544 -0.10523236 -0.07640238 0.0021613832 -0.065302365 0.06452012 -0.21655054
0.025315948 -0.121702224 0.110105395 -0.07948358 0.1101331 0.009085433 0.08470006 0.01886935
-0.07464506 -0.13482027 -0.07087898 -0.016916772 0.060575914 -0.1699038 0.06618524 -0.11363098
-0.049987756 -0.04479434 -0.00532899 0.05590429 0.060255177 -0.11860225 0.0007850643 0.012758384
-0.17465973 0.058227446 0.19923554 0.049031533 -0.22201413 0.17405179 -0.00029641218 -0.048208393
0.03816421 -0.023676058 0.008217382 -0.07167649 -0.080418825 0.04620169 -0.06407992 -0.014535416
-0.034657985 -0.23346695 -0.06446802 0.016884796 0.09360361 -0.13881487 0.10303173 0.10473795
-0.038731247 -0.0017620525 -0.16165431 -0.077730305 -0.18336166 -0.076971844 -0.08501984 0.019385053
-0.14303114 0.041648492 -0.21572287 -0.09104193 -0.062212758 0.019356804 -0.0934759 -0.1952695
-0.14300045 -0.14752945 -0.094648525 -0.23063254 -0.1152371 -0.09772756 0.10964783 -0.27157936
-0.024997624 0.13631563 -0.13719708 -0.09429904 0.004221142 -0.09117923 -0.036340874 -0.0936252
-0.017841894 -0.0002824065 -0.04023401 -0.024198057 -0.04683944 0.087121315 0.15237413 -0.09338362
0.024018783 -0.015811944 0.022557007 -0.054896615 -0.095924824 -0.15390119 -0.08456417 0.091507144
-0.013251371 -0.14503568 -0.041609302 -0.009912683 -0.0997577 -0.060383372 -0.107544824 -0.08133984
-0.07980948 -0.19481581 0.00074906816 -0.055974565 0.06696943 0.010069396 -0.040307507 -0.049235564
0.070469834 -0.060979858 0.024746714 0.04451424 -0.0881915 -0.15543316 0.033390842 0.028715577
-0.14584759 -0.13290517 -0.101934016 0.07240922 0.06617745 -0.1237803 -0.15312077 0.12390084
0.03982952 -0.0213051 -0.1519099 -0.045945358 -0.15907641 -0.047064383 -0.13653924 -0.019883493
-0.21525326 -0.11067017 -0.08538583 -0.04496142 -0.027020382 0.054686915 0.055165917 0.06329818
00000000: a3cb b4bd 6b7a 99be 4ef5 403e acf9 05bd
00000010: e6a0 c73d b9fb 00be ba0b 18be 01d0 e7bd
00000020: 367d bbbc 8b95 eb3c e8d1 97bd 323c 9d3d
00000030: 52af 873d 689f c7bc 5c5d cfbd b746 11be
00000040: 2b5d 72bd 4196 d5ba ccb2 37be 6fad 803c
00000050: 2698 abbc 4f1a c7bd 7078 59be 679a b2bd
00000060: 9131 6cbd c06b 8e3d 70ae 15be da55 9a3c
00000070: 7ee9 0aba 31cc e63d 3435 b43c 23f4 13be
00000080: fc03 9ebd 53af 13bd e1e0 28be 3483 6e3d
00000090: 9a8f 4c3d 571a 9c3d 326b cb3d 0408 38bd
000000a0: e754 1e3d 6874 f7bd 9cd9 48bd 4f49 f53d
000000b0: ead4 ebbd 9c88 f23c 200a 5abe 1cba 33be
000000c0: add3 e1bd fa2a 34bc 391c 29be c80f 9dbd
000000d0: 926a 0b3e 7279 03be 1529 90bd 5900 5e3d
000000e0: 903b 7c3d 6d7a e9bd 4cb9 193d 40a5 84bc
000000f0: 2d61 5e3d 7b5d c63c 89d3 853d bf26 2a3e
00000100: a020 18bd c8a9 393e 29b1 9fbc 5867 923d
00000110: 97a6 763d 169b 8c3d eb46 bfbd 3e29 14be
00000120: eb25 0dbe 6b42 0b3d 3bef 48be 365c 863d
00000130: 7183 f5bd 61b3 90bd 270b d43d 33df 1ebe
00000140: 34d4 583d 6c65 7f3d 2cb0 2cbb 1610 8ebc
00000150: 2a4f d0bd 3259 4cbd c872 263c 5f96 babc
00000160: d32c 0bbe ff7d 873d 92aa 6cbd 68fb 0a3e
00000170: 530f 05bc 042d 1cbe e7a3 4bbd d75a 1fbc
00000180: 0381 84bb f941 983d 1ed0 b7bd cfce e3bc
00000190: 00f4 04be 8661 f2bd 94e6 813d f6fd 92bd
000001a0: 021d 523d bd90 8cbd 1084 d7bd da78 9cbd
000001b0: fea5 0d3b 3fbd 85bd 2023 843d 6dbf 5dbe
000001c0: 6463 cf3c 043f f9bd f07e e13d 4ac8 a2bd
000001d0: 768d e13d 11db 143c 3a77 ad3d e593 9a3c
000001e0: 82df 98bd 530e 0abe 0029 91bd 0b95 8abc
000001f0: 731e 783d 43fb 2dbe 218c 873d 5cb7 e8bd
00000200: f6bf 4cbd 457a 37bd cf9e aebb e6fb 643d
00000210: 22ce 763d bde5 f2bd c6cc 4d3a 8b08 513c
00000220: 00da 32be e77f 6e3d 6704 4c3e 4ad5 483d
00000230: ac57 63be a23a 323e c567 9bb9 2a76 45bd
00000240: 1352 1c3d 4bf4 c1bc 33a2 063c 20cb 92bd
00000250: a0b2 a4bd fc3d 3d3d 553c 83bd f425 6ebc
00000260: 88f5 0dbd f611 6fbe cf07 84bd fc51 8a3c
00000270: 40b3 bf3d 7c25 0ebe 4d02 d33d da80 d63d
00000280: a8a4 1ebd acf4 e6ba b588 25be 1131 9fbd
00000290: 29c3 3bbe 6aa3 9dbd e21e aebd 67cd 9e3c
000002a0: c176 12be 9c97 2a3d 75e6 5cbe 3174 babd
000002b0: ced2 7ebd 2992 9e3c 4b70 bfbd baf4 47be
000002c0: b66e 12be f611 17be 16d7 c1bd f02a 6cbe
000002d0: 6e01 ecbd 6325 c8bd 0b8f e03d 730c 8bbe
000002e0: d1c7 ccbc 5396 0b3e 647d 0cbe db1f c1bd
000002f0: 8151 8a3b 2dbc babd 2bda 14bd 92be bfbd
00000300: 2a29 92bc f50f 94b9 6bcc 24bd 013b c6bc
00000310: b6da 3fbd a96c b23d f707 1c3e e93f bfbd
00000320: 0ac3 c43c 0d88 81bc 79c9 b83c 46db 60bd
00000330: 3c74 c4bd 4698 1dbe fb2f adbd 1968 bb3d
00000340: 471c 59bc 3c84 14be 846e 2abd ce68 22bc
00000350: c44d ccbd 8e54 77bd 7640 dcbd 8195 a6bd
00000360: 2773 a3bd cc7d 47be 1d5d 443a 9645 65bd
00000370: 4527 893d 1cfa 243c 7c19 25bd 3bab 49bd
00000380: 7d52 903d 04c6 79bd 9fb9 ca3c 9054 363d
00000390: bf9d b4bd df29 1fbe d6c4 083d ee3c eb3c
000003a0: 1259 15be 4b18 08be c8c2 d0bd 494b 943d
000003b0: 0b88 873d 8780 fdbd b1cb 1cbe b9bf fd3d
000003c0: 4724 233d 0888 aebc 458e 1bbe 3331 3cbd
000003d0: ede4 22be 95c6 40bd f1d0 0bbe b5e2 a2bc
000003e0: 5a6b 5cbe 0ba7 e2bd c4de aebd 7729 38bd
000003f0: d959 ddbc 63ff 5f3d a8f5 613d 7aa2 813d

weight f4 [256, 512]
0.07052944 -0.016396852 0.037027143 0.17963102 0.07339659 -0.051480174 -0.109438375 0.05118716
0.056379355 0.00026572047 0.005526129 -0.020845968 0.041898046 0.0817648 0.1925342 -0.035659455
-0.12069274 -0.126679 0.31679094 0.009731067 -0.0070093716 -0.051142644 0.040927235 0.045319274
-0.07471417 -0.001140532 -0.10361917 0.01711898 0.031481534 -0.054814637 -0.0179756 0.021595556
0.029674103 0.05143678 0.22340311 -0.014024886 0.12789607 0.095143944 0.070340045 -0.09752696
0.034009676 -0.0016514197 0.06974857 0.026716862 0.15757747 0.14059272 -0.06737225 -0.014199734
-0.036878113 -0.060450498 -0.15476248 0.038017552 -0.05987355 0.1672628 0.06358259 0.049618468
-0.06414785 0.11683381 -0.16033877 -0.051839773 0.08125871 -0.06164149 0.11856675 -0.005552535
-0.09950574 -0.065857515 -0.13749295 -0.14060974 -0.14132959 -0.07735207 0.01583526 0.18130504
-0.09158436 0.021888746 0.018653534 -0.08978685 -0.07672347 -0.15439567 0.09099659 0.049525186
-0.06179615 0.019221565 0.07034204 0.08959891 0.050490297 0.024835786 -0.007552572 0.019990757
-0.048699103 -0.004907166 -0.033125423 -0.02214226 0.02594964 0.037630867 0.22052166 0.09460991
-0.09420613 0.061275594 -0.14063154 0.0060413005 0.017584614 0.00532543 -0.013278624 0.079380564
-0.06669581 -0.0764091 -0.1476094 -0.027412016 -0.0593625 0.063211165 0.07750793 0.094918214
0.043885052 -0.22086959 0.0689355 -0.055690162 -0.103926405 0.033458516 -0.087147415 -0.0052771806
-0.03808327 -0.04785366 0.16645516 0.014638996 0.02770807 0.10340846 -0.08733966 -0.1381604
-0.023365533 -0.1239872 0.13146088 -0.019826014 0.0037789217 0.019381894 0.032941673 -0.19334887
0.04233068 0.046189852 0.005453388 -0.0031636644 -0.026702119 0.07935023 0.08671407 0.0800467
0.1496643 0.121773876 0.041548666 0.055634055 0.109184764 0.10014418 0.021260342 -0.081162944
0.05385812 -0.04158594 -0.017006733 -0.031343404 -0.12197647 0.012922909 -0.092668444 -0.06939898
-0.14884412 0.112220794 0.09216772 0.09329558 -0.039744448 0.072221816 -0.0046621226 0.024041789
0.20429625 -0.13424806 0.018756855 -0.005213498 -0.009915025 0.06438894 -0.040072463 0.023724278
0.1581165 0.081296496 -0.18749452 -0.022602728 0.09988871 0.118616596 0.118068874 0.1305034
-0.10453483 0.038287364 -0.12563817 0.017511763 -0.008694745 0.019070763 -0.035814937 0.09884106
0.1077343 0.05419901 0.020024205 0.09180399 -0.13247661 0.10508415 -0.07816164 0.09659529
0.096199006 -0.037819207 -0.13106151 0.06385037 0.019381475 -0.06223211 0.15308078 -0.11509572
0.058979563 -0.048895232 -0.043875437 -0.03875479 -0.010807858 -0.01744331 -0.15838568 -0.056288224
0.1848956 0.11574135 -0.00907265 0.06978142 -0.1678641 -0.05910724 0.017386507 0.073606715
-0.17999165 -0.27743945 -0.06091538 -0.10862179 -0.07556802 -0.06204235 -0.032924052 -0.10786866
0.11229231 0.0437983 0.009841622 -0.22269176 0.14884003 0.0797231 -0.064842366 0.07532847
-0.026238555 0.023105545 -0.027631063 -0.060410272 0.005788695 -0.013900354 0.17757651 -0.14121462
0.12506273 0.0757111 0.043640375 0.109259605 -0.113824114 -0.08456281 0.12993644 0.048215702
00000000: bd71 903d b152 86bc c6a9 173d 32f1 373e
00000010: f450 963d e0dc 52bd 3a21 e0bd a1a9 513d
00000020: 0aee 663d 6650 8b39 8814 b53b 2ac5 aabc
00000030: 499d 2b3d 4e74 a73d af27 453e a60f 12bd
00000040: c12d f7bd 24b8 01be 6c32 a23e 0e6f 1f3c
00000050: dfae e5bb f37a 51bd 51a3 273d b4a0 393d
00000060: be03 99bd e77d 95ba 4a36 d4bd 1a3d 8c3c
00000070: c8f2 003d 5085 60bd 9141 93bc 2ae9 b03c
00000080: 1b17 f33c 5faf 523d c9c3 643e a3c8 65bc
00000090: 30f7 023e d4da c23d 710e 903d 37bc c7bd
000000a0: bb4d 0b3d 7374 d8ba 57d8 8e3d 52dd da3c
000000b0: fd5b 213e 8af7 0f3e 76fa 89bd 00a6 68bc
000000c0: 810d 17bd f19a 77bd 0e7a 1ebe 4bb8 1b3d
000000d0: f83d 75bd f046 2b3e 9737 823d bc3c 4b3d
000000e0: f35f 83bd 9146 ef3d d92f 24be f155 54bd
000000f0: f76a a63d c97b 7cbd 20d3 f23d 0af2 b5bb
00000100: aac9 cbbd 4ee0 86bd f4ca 0cbe 00fc 0fbe
00000110: b4b8 10be c36a 9ebd f2b8 813c 07a8 393e
00000120: 9590 bbbd 0750 b33c 4ccf 983c 2be2 b7bd
00000130: 3221 9dbd e619 1ebe 6c5c ba3d ecda 4a3d
00000140: f61d 7dbd 8b76 9d3c 7d0f 903d a27f b73d
00000150: eace 4e3d 6b74 cb3c 917b f7bb a8c3 a33c
00000160: b678 47bd 4bcc a0bb 86ae 07bd af63 b5bc
00000170: 5794 d43c d322 1a3d 6ed0 613e d7c2 c13d
00000180: 25ef c0bd 1efc 7a3d b701 10be 1af6 c53b
00000190: 9c0d 903c f280 ae3b 968e 59bc 4792 a23d
000001a0: d097 88bd 607c 9cbd eb26 17be 2a8f e0bc
000001b0: 1826 73bd db74 813d 7abc 9e3d 7b64 c23d
000001c0: d0c0 333d a32b 62be 0e2e 8d3d 5e1b 64bd
000001d0: 5ed7 d4bd cc0b 093d 587a b2bd 33ec acbb
000001e0: 34fd 1bbd 3302 44bd 3973 2a3e 66d8 6f3c
000001f0: 09fc e23c d1c7 d33d 23df b2bd eb79 0dbe
00000200: 1369 bfbc 00ed fdbd ae9d 063e 2a6a a2bc
00000210: c9a7 773b c7c6 9e3c d9ed 063d 3ffd 45be
00000220: ef62 2d3d 9231 3d3d 56b2 b23b 7b55 4fbb
00000230: 67be dabc 6082 a23d 2597 b13d 86ef a33d
00000240: 9941 193e 9564 f93d ef2e 2a3d 89e0 633d
00000250: 439c df3d 6418 cd3d 2b2a ae3c c238 a6bd
00000260: 559a 5c3d 0556 2abd b451 8bbc f161 00bd
00000270: cdce f9bd 9cba 533c f4c8 bdbd 0d21 8ebd
00000280: 986a 18be 04d4 e53d 6ec2 bc3d c111 bf3d
00000290: 13cb 22bd 08e9 933d b8c4 98bb 49f3 c43c
000002a0: 0933 513e 5378 09be faa7 993c fed5 aabb
000002b0: a172 22bc 59de 833d 0623 24bd 6b59 c23c
000002c0: 4be9 213e c77e a63d 90fe 3fbe 5b29 b9bc
000002d0: 7492 cc3d 42ed f23d 18ce f13d afa2 053e
000002e0: 5b16 d6bd 36d3 1c3d 4ba7 00be d474 8f3c
000002f0: 6774 0ebc 4a3a 9c3c afb2 12bd 2f6d ca3d
00000300: cda3 dc3d c8ff 5d3d cd09 a43c bb03 bc3d
00000310: f3a7 07be 5c36 d73d 3613 a0bd c0d3 c53d
00000320: fc03 c53d 50e8 1abd fd34 06be fcc3 823d
00000330: e6c5 9e3c 19e7 7ebd 35c1 1c3e 4eb7 ebbd
00000340: 8e94 713d 5e46 48bd bbb6 33bd 58bd 1ebd
00000350: 7113 31bc 46e5 8ebc db2f 22be 7b8e 66bd
00000360: 4655 3d3e cd09 ed3d 74a5 14bc 90e9 8e3d
00000370: 91e4 2bbe 6f1a 72bd 266e 8e3c 1ebf 963d
00000380: bb4f 38be 8b0c 8ebe 6882 79bd 1a75 debd
00000390: 68c3 9abd 1f20 7ebd 5fdb 06bd 3eea dcbd
000003a0: 83f9 e53d d965 333d c13e 213c 4f09 64be
000003b0: 8569 183e dd45 a33d 13cc 84bd d045 9a3d
000003c0: 3df2 d6bc d747 bd3c 8a5a e2bc c370 77bd
000003d0: 18af bd3b 4fbe 63bc 9ed6 353e 919a 10be
000003e0: 7210 003e 6c0e 9b3d 40c0 323d 80c3 df3d
000003f0: 9e1c e9bd 442f adbd 0f0e 053e d47d 453d

bias f4 [256]
-0.091559365 -0.1246341 -0.037350535 -0.09658361 -0.10300821 -0.06536835 -0.04130029 -0.15904692
-0.05018344 -0.1362287 -0.18091579 0.032632332 -0.03822244 0.029172624 -0.07409009 -0.033947468
-0.119363695 -0.023630584 -0.12645608 -0.048735294 -0.036275193 -0.117802344 -0.10005911 -0.043458574
-0.107060745 -0.052073985 -0.10299015 -0.10212881 0.013405145 -0.055454027 -0.07311435 -0.15481663
-0.04335749 0.021131163 -0.09232836 0.05453017 -0.059224594 -0.11278273 -0.02275974 0.008205563
-0.038603377 -0.060638923 -0.19404195 -0.18897268 -0.05676789 -0.15428002 -0.039623324 -0.09536782
0.0665714 -0.16080183 -0.15508562 0.0042070933 -0.15700002 -0.037300605 0.009238224 -0.013176045
-0.057823952 -0.08200572 -0.064047836 0.020837601 -0.018749394 -0.07339665 -0.055658016 -0.14173561
-0.11896142 -0.11799298 -0.12603414 -0.177811 0.009668501 -0.0191434 -0.11494447 -0.024449348
-0.07150577 -0.032635834 -0.012506305 -0.07837463 -0.008946795 0.025198981 -0.082792245 -0.07187947
-0.06781718 -0.01672291 -0.00944303 0.008126191 -0.0482348 -0.05350781 -0.10121282 -0.11504516
-0.056156386 -0.08061174 -0.054117985 -0.049589477 -0.047773108 -0.05809904 -0.06348361 -0.1570519
-0.12404397 -0.008578553 -0.09686026 -0.059087288 -0.07017489 -0.065384574 -0.16003542 -0.1535383
-0.16794899 -0.124322526 -0.11783954 -0.07489868 -0.046908557 -0.09007021 0.0073498087 0.012946118
-0.00880275 -0.121209815 -0.047580987 -0.08891496 -0.03550401 -0.06695807 0.024321454 0.0035421096
-0.0880165 -0.042815715 -0.08873947 -0.21182272 0.0071143964 0.017311657 -0.18816245 -0.09492567
0.060710188 -0.081640124 -0.09466766 -0.04981842 -0.16352212 -0.09182958 -0.05642168 -0.078293666
-0.061983757 -0.147752 -0.07150886 -0.1600393 -0.052593824 -0.07394407 -0.10789677 -0.02912446
-0.13591336 -0.07676419 -0.073368125 -0.1062284 -0.18557836 -0.089726344 -0.15331823 -0.096827455
-0.11659848 -0.11304995 -0.06054604 -0.02261687 -0.0024101315 -0.18167117 -0.053152468 0.012052939
-0.13628644 -0.009212477 -0.007335906 -0.08131901 -0.060630172 -0.18840379 -0.09887514 0.0511182
0.07530685 -0.13554733 -0.084817335 -0.021502689 -0.04869082 -0.007595617 -0.14461239 -0.039847847
-0.20207806 -0.08529805 -0.13662398 0.0028677012 -0.054404993 0.03745203 -0.036500532 -0.031108584
0.032214615 -0.084148355 -0.01765686 -0.13197833 -0.14488912 -0.14891581 -0.032121643 -0.12361312
-0.11441532 -0.13716032 -0.032344036 -0.17591769 -0.18251616 -0.06298317 -0.06694706 -0.10144202
-0.05436018 -0.0826549 -0.1448897 -0.105705634 0.00059460837 -0.0067367847 -0.04630071 -0.07811654
-0.15195873 -0.07430034 -0.12800989 0.029423095 -0.03982763 -0.028658237 -0.11769074 -0.033259712
-0.11023561 -0.06853818 -0.07572872 -0.073355496 -0.07542057 -0.12953055 -0.12903287 -0.08739939
-0.016405113 -0.045433775 -0.0807317 0.029807586 0.019221082 -0.012258276 -0.028127013 -0.04546408
-0.14541678 -0.026200714 -0.026813023 -0.23627137 -0.09528215 -0.101644956 -0.017994137 0.0069148913
-0.13136429 -0.09573887 -0.22769451 -0.10533447 -0.14478964 -0.05972128 0.00041858287 -0.0378883
-0.05697252 -0.031201126 -0.016721789 -0.03107536 -0.026774986 -0.00911366 -0.07042729 0.031697497
00000000: 7a83 bbbd 2a40 ffbd e0fc 18bd a1cd c5bd
00000010: f8f5 d2bd d7df 85bd 7e2a 29bd 32dd 22be
00000020: 278d 4dbd 897f 0bbe fd41 39be 7ba9 053d
00000030: 228f 1cbd 6dfb ee3c 8cbc 97bd 800c 0bbd
00000040: f474 f4bd ed94 c1bc b47d 01be a99e 47bd
00000050: 4c95 14bd 5b42 f1bd caeb ccbd 9e01 32bd
00000060: aa42 dbbd 884b 55bd 80ec d2bd e928 d1bd
00000070: 41a1 5b3c c323 63bd fabc 95bd 4088 1ebe
00000080: a097 31bd 431b ad3c a716 bdbd 075b 5f3d
00000090: 7d95 72bd a2fa e6bd a272 babc a070 063c
000000a0: 931e 1ebd 8560 78bd efb2 46be 0e82 41be
000000b0: 7285 68bd 95fb 1dbe 114c 22bd 3450 c3bd
000000c0: 9656 883d 3ca9 24be c4ce 1ebe a8db 893b
000000d0: 9dc4 20be 85c8 18bd eb5b 173c 57e0 57bc
000000e0: cfd8 6cbd 9df2 a7bd 832b 83bd 9eb3 aa3c
000000f0: 5498 99bc fc50 96bd a9f9 63bd 2423 11be
00000100: 0ca2 f3bd 4ea6 f1bd 180f 01be 1614 36be
00000110: a268 1e3c 9fd2 9cbc 0268 ebbd 004a c8bc
00000120: 9e71 92bd 27ad 05bd 3fe7 4cbc e182 a0bd
00000130: 9495 12bc 186e ce3c fb8e a9bd 8b35 93bd
00000140: bce3 8abd 7cfe 88bc f0b6 1abc b723 053c
00000150: db91 45bd 012b 5bbd ab48 cfbd cc9c ebbd
00000160: 3d04 66bd c517 a5bd d2aa 5dbd 561e 4bbd
00000170: bcad 43bd 42f9 6dbd b203 82bd 37d2 20be
00000180: c40a febd 0f8d 0cbc ac5e c6bd 8305 72bd
00000190: dab7 8fbd 59e8 85bd 53e0 23be 2539 1dbe
000001a0: d2fa 2bbe cf9c febd db55 f1bd 7b64 99bd
000001b0: 3023 40bd bb76 b8bd aad6 f03b f41b 543c
000001c0: 6939 10bc da3c f8bd 48e4 42bd 0c19 b6bd
000001d0: a76c 11bd 5021 89bd c93d c73c bd22 683b
000001e0: ff41 b4bd 885f 2fbd 0abd b5bd 0ee8 58be
000001f0: e21f e93b 2dd1 8d3c a8ad 40be 6468 c2bd
00000200: 3fab 783d f032 a7bd 1ee1 c1bd 660e 4cbd
00000210: 5872 27be 2611 bcbd 6b1a 67bd 6e58 a0bd
00000220: aee2 7dbd 4d4c 17be 3d73 92bd 58e1 23be
00000230: 9f6c 57bd fd6f 97bd fbf8 dcbd 6b96 eebc
00000240: df2c 0bbe 8b36 9dbd 0742 96bd 468e d9bd
00000250: 4108 3ebe 72c2 b7bd 74ff 1cbe 794d c6bd
00000260: 2fcb eebd bb86 e7bd 20ff 77bd 0447 b9bc
00000270: 4cf3 1dbb 0208 3abe 67b6 59bd b179 453c
00000280: ac8e 0bbe eeef 16bc 0a62 f0bb 958a a6bd
00000290: 5857 78bd ecec 40be 0d7f cabd 5161 513d
000002a0: 7a3a 9a3d ebcc 0abe b6b4 adbd 6826 b0bc
000002b0: 0670 47bd a7e4 f8bb 4515 14be 7f37 23bd
000002c0: 8ded 4ebe beb0 aebd 28e7 0bbe 0bf0 3b3b
000002d0: c5d7 5ebd 4d67 193d 9581 15bd 6ed7 febc
000002e0: 79f3 033d f955 acbd 1fa5 90bc 5425 07be
000002f0: d05d 14be 637d 18be fc91 03bd e028 fdbd
00000300: 9452 eabd c173 0cbe 2e7b 04bd c423 34be
00000310: 84e5 3abe 52fd 80bd 8a1b 89bd d5c0 cfbd
00000320: c8a8 5ebd f946 a9bd f75d 14be 327c d8bd
00000330: 7edf 1b3a 3fc0 dcbb d0a5 3dbd 91fb 9fbd
00000340: 129b 1bbe c72a 98bd 0615 03be b408 f13c
00000350: 4c22 23bd aec4 eabc d807 f1bd 563b 08bd
00000360: 35c3 e1bd bf5d 8cbd a917 9bbd 683b 96bd
00000370: 1a76 9abd a8a3 04be 3121 04be 74fe b2bd
00000380: 0464 86bc c418 3abd a956 a5bd 0a2f f43c
00000390: 8875 9d3c f0d6 48bc 9f6a e6bc 8b38 3abd
000003a0: 23e8 14be e1a2 d6bc fca6 dbbc 1ff1 71be
000003b0: 4a23 c3bd 3b2b d0bd 7168 93bc 5096 e23b
000003c0: 5c84 06be be12 c4bd c028 69be 99b9 d7bd
000003d0: bc43 14be 4d9e 74bd 3e75 db39 c330 1bbd
000003e0: 045c 69bd 8199 ffbc 22fc 88bc c191 febc
000003f0: 3757 dbbc 7651 15bc 2f3c 90bd 3cd5 013d

weight f4 [128, 256]
-0.036606826 -0.08563983 0.012990429 -0.022370629 0.009238306 0.07459749 0.06590055 -0.037047766
-0.016747596 0.01598672 0.048307747 -0.020570125 -0.033199977 -0.006950027 0.0692322 0.015073223
0.0509167 -0.04009459 -0.0014554969 0.033474375 0.003953781 -0.036101133 0.035417423 -0.119933
0.03878683 0.025795475 0.010315246 0.06017864 0.05440252 -0.070516534 -0.019476464 0.016669746
0.06106421 0.011375538 -0.012806156 0.06270721 0.01634129 -0.02587917 -0.025473554 -0.0004265696
-0.010827544 -0.012567618 0.11013344 -0.055258278 -0.041355982 0.02962564 -0.054051884 -0.051165417
0.04465238 0.008573695 -0.0601738 0.0050775106 -0.059808496 0.0049371715 -0.0018446669 0.07182627
-0.058158956 -0.019031338 -0.037710972 -0.011632783 -0.08870945 -0.0066689975 -0.022063795 -0.02306372
0.0026671067 0.05037457 0.027257072 -0.120151125 -0.048373103 0.053004004 -0.049888678 -0.06560474
-0.011949987 -0.035999183 0.008737662 0.07195999 -0.012978318 -0.052459504 -0.01586885 -0.03721873
-0.04503386 -0.021402286 -0.051411312 0.08616867 0.00666806 0.030287152 0.009539996 -0.007455617
0.0037621194 0.16114655 -0.03924135 -0.0008540534 0.08531672 0.028231481 -0.0005482714 -0.09316092
-0.02665598 0.020174127 -0.01808919 -0.0048222863 0.028413055 0.011831311 -0.07075137 0.14589141
0.04140887 0.00842423 0.040835384 0.038688622 0.032681268 -0.02419648 -0.0027017095 0.03525731
-0.013194226 -0.04645949 -0.028549235 0.03729213 0.079140976 0.059229236 -0.044007212 0.048537206
-0.069500014 0.034419116 0.012684839 -0.047273766 -0.029606711 -0.10007985 -0.011747674 -0.055821232
0.029962163 0.019644517 -0.025756458 0.030887997 0.009411508 -0.06847627 -0.035924997 -0.0007081772
0.0116450945 0.12848714 -0.058548804 -0.02497267 0.028821988 -0.04154564 -0.04107431 0.0045294906
0.046460755 -0.068348035 -0.036972508 0.03414374 0.10358119 0.02459497 -0.04632883 -0.06334951
0.008493668 -0.11899206 0.0455334 -0.028489565 -0.10749327 -0.066880554 0.033353485 0.0087213
-0.09560494 -0.03538258 -0.025418734 -0.08110492 0.05858119 -0.041252628 -0.013041346 0.008665353
-0.05286019 0.010977254 0.017892485 -0.018247357 0.027476072 0.03243697 -0.032253075 -0.028240798
0.02350955 0.006784087 0.040372286 0.08869725 0.0031239863 0.028737716 -0.0366331 -0.0065710424
0.0022276216 -0.033332705 0.04651327 -0.0035751911 0.0068189227 0.02550252 -0.004839898 -0.11610503
-0.016730065 -0.057374142 0.022367552 0.07682796 0.07103393 0.026285926 0.09692455 0.02774958
-0.0070378766 0.06000422 0.039389487 -0.046609905 -0.017409522 -0.09001375 0.047317382 0.0046530156
0.07662967 -0.03254393 0.053338043 -0.0049531525 -0.028359551 0.033800628 0.018133784 0.010451926
0.03946446 -0.08139465 0.030727332 -0.039366394 -0.08988127 -0.08801719 0.043815266 0.0020967142
0.052567206 -0.07030922 0.011759561 -0.052548718 -0.04222844 0.0007387146 -0.0031679936 -0.06710572
0.04745639 -0.018123422 -0.009583703 0.059535418 0.023067564 0.051960513 -0.0036266425 0.0321653
-0.034689013 0.053029772 0.037036948 -0.11409027 -0.030259024 -0.06468045 0.008262973 -0.040729918
-0.034084376 0.005148499 0.044835374 -0.023607623 0.009149501 0.05452583 0.031403046 0.067523666
00000000: 0af1 15bd ef63 afbd cfd5 543c 9c42 b7bc
00000010: 445c 173c 92c6 983d def6 863d 66bf 17bd
00000020: 4132 89bc 95f6 823c 58de 453d ae82 a8bc
00000030: b3fc 07bd 0dbd e3bb 9dc9 8d3d aef5 763c
00000040: 088e 503d 3a3a 24bd 5fc6 beba 6d1c 093d
00000050: b88e 813b c8de 13bd dc11 113d 6f9f f5bd
00000060: f0de 1e3d 0851 d33c 4701 293c e17d 763d
00000070: 2dd5 5e3d f96a 90bd 1b8d 9fbc fe8e 883c
00000080: 771e 7a3d 7760 3a3c e9d0 51bc a36c 803d
00000090: 2bde 853c 8e00 d4bc eaad d0bc 34a5 dfb9
000000a0: 0366 31bc 69e8 4dbc a48d e13d 8156 62bd
000000b0: e464 29bd 78b1 f23c 8265 5dbd d492 51bd
000000c0: 6ae5 363d af78 0c3c cd78 76bd 3f61 a63b
000000d0: c1f9 74bd ffc7 a13b c0c8 f1ba a719 933d
000000e0: 1638 6ebd 9ce7 9bbc d276 1abd 6e97 3ebc
000000f0: 4dad b5bd 9b87 dabb 22bf b4bc 20f0 bcbc
00000100: a0ca 2e3b 9155 4e3d 394a df3c cb11 f6bd
00000110: e022 46bd ba1a 593d 1258 4cbd c75b 86bd
00000120: e1c9 43bc e173 13bd 6928 0f3c c25f 933d
00000130: 03a3 54bc c7df 56bd 64ff 81bc ab72 18bd
00000140: 6d75 38bd d953 afbc ab94 52bd 3379 b03d
00000150: be7f da3b c31c f83c a54d 1c3c 404e f4bb
00000160: e48d 763b 9a03 253e 8abb 20bd 8ee2 5fba
00000170: 88ba ae3d b545 e73c dfb9 0fba 27cb bebd
00000180: a45d dabc 3644 a53c c82f 94bc 4504 9ebb
00000190: 7fc2 e83c 1dd8 413c 18e6 90bd 8f64 153e
000001a0: 599c 293d c805 0a3c 0143 273d f677 1e3d
000001b0: cbdc 053d b237 c6bc 2a0f 31bb f869 103d
000001c0: 982c 58bc 4e4c 3ebd 16e0 e9bc a2bf 183d
000001d0: aa14 a23d 5b9a 723d e840 34bd f3ce 463d
000001e0: 0656 8ebd 0ffb 0c3d 12d4 4f3c 23a2 41bd
000001f0: c689 f2bc aaf6 ccbd 5179 40bc cea4 64bd
00000200: 3673 f53c 8aed a03c 35ff d2bc d308 fd3c
00000210: ba32 1a3c 493d 8cbd 1726 13bd f8a4 39ba
00000220: 11cb 3e3c 2292 033e dfd0 6fbd 7c93 ccbc
00000230: 171c ec3c c32b 2abd 893d 28bd 1f6c 943b
00000240: a24d 3e3d 0efa 8bbd 7c70 17bd 4eda 0b3d
00000250: 6022 d43d 647b c93c 4dc3 3dbd 63bd 81bd
00000260: 0729 0b3c 1cb2 f3bd 3b81 3a3d f362 e9bc
00000270: 6e25 dcbd acf8 88bd aa9d 083d c9e3 0e3c
00000280: 86cc c3bd 53ed 10bd f33a d0bc 561a a6bd
00000290: d4f2 6f3d 84f8 28bd 5fab 55bc 20f9 0d3c
000002a0: ed83 58bd f1d9 333c 4393 923c 7b7b 95bc
000002b0: 8015 e13c a1dc 043d cd1b 04bd 3f59 e7bc
000002c0: 1a97 c03c 0c4d de3b 695d 253d e7a6 b53d
000002d0: cbbb 4c3b 5c6b eb3c 970c 16bd e651 d7bb
000002e0: 4afd 113b e087 08bd b384 3e3d c14d 6abb
000002f0: 4571 df3b a9ea d03c 0298 9ebb 79c8 edbd
00000300: 7d0d 89bc 2601 6bbd 283c b73c fa57 9d3d
00000310: 3d7a 913d 9555 d73c 6180 c63d 1653 e33c
00000320: fd9d e6bb fcc6 753d df56 213d 07ea 3ebd
00000330: 6a9e 8ebc 2159 b8bd dfcf 413d 5378 983b
00000340: 04f0 9c3d c94c 05bd fe78 5a3d 0e4e a2bb
00000350: 4a52 e8bc 8772 0a3d 4d8d 943c 8e3e 2b3c
00000360: 7ca5 213d 3db2 a6bd e3b7 fb3c a83e 21bd
00000370: ac13 b8bd 5b42 b4bd a377 333d 0769 093b
00000380: b650 573d 48fe 8fbd 2cab 403c 533d 57bd
00000390: bbf7 2cbd 4ca6 413a 1d9e 4fbb b96e 89bd
000003a0: a261 423d 9277 94bc f704 1dbc 69db 733d
000003b0: 30f8 bc3c 8cd4 543d f7ac 6dbb c3bf 033d
000003c0: 1116 0ebd bf35 593d 0eb4 173d 29a8 e9bd
000003d0: c6e1 f7bc 2f77 84bd 6c61 073c 6ad4 26bd
000003e0: 0f9c 0bbd bdb4 a83b 4ca5 373d c664 c1bc
000003f0: cae7 153c 7a56 5f3d 7ba0 003d d949 8a3d

bias f4 [128]
0.006770596 -0.07193813 -0.11405063 -0.07161636 -0.03914837 -0.06792935 -0.008763483 0.10895338
0.014086463 0.032739274 -0.002467202 0.049325023 -0.09136106 -0.117744654 6.4931255e-06 0.0042752535
-0.12838441 -0.09818005 -0.1923195 0.019300798 0.032486647 -0.09400513 0.026198061 -0.1301604
-0.011756842 -0.037254 -0.025809048 0.033110302 -0.10016033 0.03478956 -0.04158069 -0.05201723
-0.027460288 -0.09293522 -0.03054323 -0.061502665 -0.12830184 -0.066569 -0.0027421145 -0.19687556
0.04370718 -0.15686227 0.0142962895 -0.07320689 -0.06535589 -0.079360306 -0.08973172 -0.18100715
-0.23566398 -0.10810451 -0.05640117 -0.019376036 -0.09550532 -0.005235382 -0.1781052 -0.15257841
0.014053086 -0.06754716 -0.08839996 -0.088877805 -0.029838366 -0.05191437 -0.058312684 -0.03762759
-0.07259836 -0.2703305 -0.025303228 0.0021147528 0.016706051 -0.006397701 -0.031968173 -0.061763883
-0.123185866 -0.053791415 -0.022561483 -0.15760258 0.017005756 -0.0061951606 -0.07001116 -0.16807172
-0.11188656 -0.033324067 0.0033378603 -0.12060539 -0.11068744 -0.24258398 -0.18091257 -0.08185241
0.009216373 0.03892103 -0.0766468 -0.017440071 -0.16751705 0.010976353 -0.14914274 0.038008742
-0.042519458 -0.040905967 0.002709223 -0.07700406 0.016731799 0.035494756 -0.121127345 -0.009730044
-0.09795658 -0.20154652 0.030959928 -0.033596855 -0.00807553 0.006817637 -0.013564257 -0.033178203
-0.027554678 -0.0050541903 -0.03022022 0.021474177 -0.07116909 0.006815485 0.009378369 -0.049474165
0.07503558 -0.0852233 -0.034562305 0.006859144 -0.1241153 -0.111189246 -0.064372905 -0.077333495
00000000: e0db dd3b 4c54 93bd 6093 e9bd 99ab 92bd
00000010: 0b5a 20bd 8b1e 8bbd b694 0fbc f322 df3d
00000020: e8ca 663c 9e19 063d c8b0 21bb 0909 4a3d
00000030: 821b bbbd 1c24 f1bd 86df d936 6d17 8c3b
00000040: 3477 03be 9f12 c9bd 67ef 44be b51c 9e3c
00000050: b810 053d c385 c0bd 519d d63c c548 05be
00000060: c59f 40bc a697 18bd 7f6d d3bc ab9e 073d
00000070: dc20 cdbd 7f7f 0e3d 8350 2abd 0510 55bd
00000080: 66f4 e0bc d254 bebd cc35 fabc 38ea 7bbd
00000090: 8f61 03be 5455 88bd 0cb5 33bb bf99 49be
000000a0: 4d06 333d 81a0 20be fc3a 6a3c 7eed 95bd
000000b0: 4fd9 85bd a887 a2bd 44c5 b7bd f059 39be
000000c0: e651 71be e665 ddbd ea04 67bd 7eba 9ebc
000000d0: 4b98 c3bd 918d abbb 3661 36be 843d 1cbe
000000e0: ea3e 663c 2a56 8abd 0a0b b5bd 9105 b6bd
000000f0: 976f f4bc 2aa4 54bd 48d9 6ebd 631f 1abd
00000100: 73ae 94bd c268 8abe b748 cfbc aa97 0a3b
00000110: 21db 883c cea3 d1bb 0ff1 02bd 20fc 7cbd
00000120: df48 fcbd 6354 5cbd dcd2 b8bc 9262 21be
00000130: a84f 8b3c c600 cbbb 0362 8fbd fe1a 2cbe
00000140: c824 e5bd d17e 08bd 01c0 5a3b f5ff f6bd
00000150: 19b0 e2bd ef67 78be 2541 39be 3da2 a7bd
00000160: 4500 173c a86b 1f3d fff8 9cbd 7bde 8ebc
00000170: 9789 2bbe 29d6 333c e0b8 18be 0eaf 1b3d
00000180: e228 2ebd 048d 27bd 388d 313b 4eb4 9dbd
00000190: 2011 893c f362 113d 9d11 f8bd c36a 1fbc
000001a0: 769d c8bd 3662 4ebe ad9f fd3c db9c 09bd
000001b0: 3a4f 04bc 7c66 df3b 9e3c 5ebc dee5 07bd
000001c0: 59ba e1bc 9f9d a5bb 6590 f7bc 9dea af3c
000001d0: 1ac1 91bd 6f54 df3b bba7 193c 6ca5 4abd
000001e0: 41ac 993d 8e89 aebd 3491 0dbd acc2 e03b
000001f0: 2a30 febd 30b7 e3bd f1d5 83bd 0661 9ebd

weight f4 [12, 128]
0.011413954 -0.029910939 0.057402156 -0.027112471 0.017092941 0.013947882 -0.028288484 -0.08162877
-0.026168114 -0.037241224 -0.032965586 0.0044184835 0.03878891 0.014179289 -0.0015505686 -0.0060541374
0.0075653703 0.044190273 -0.0095605375 -0.059677295 -0.019633116 0.014525518 0.029329091 0.0023805397
0.03769337 0.04018896 -0.034984928 -0.018974215 0.01600334 -0.035167046 0.031172223 -0.053591467
0.0011018987 -0.06267557 0.05006555 0.015798636 -0.018590236 0.08865567 -0.0005439599 0.037722193
-0.017900234 -0.08250394 0.016753446 0.0019840752 -0.050049104 -0.051533725 -0.008696464 -0.049547687
0.0032433008 -0.040877964 0.031030705 -0.020883381 -0.02629661 -0.025285916 0.055214144 0.108257
0.028811477 0.051041108 -0.021817576 -0.02434664 -0.0074158306 0.0076681976 0.050286435 0.0040155146
-0.008571973 0.078929864 -0.026641903 0.0025483128 -0.00046381616 -0.047240913 -0.004266831 0.031018918
0.07789524 0.04632543 0.04812355 0.02832147 0.024125269 0.011818476 0.017560061 -0.06836196
-0.071397714 0.03723091 -0.03324239 -0.035126343 -0.10451507 0.099147156 -0.055257652 0.009773215
-0.0017320352 0.015654488 -0.025351873 0.013856897 -0.047366522 -0.021716926 0.052256744 -0.014957724
-0.04011448 0.00041761823 -0.003633129 -0.011433251 0.012535746 -0.038271893 0.010532996 0.038659286
0.057069972 0.030798996 -0.0755799 -0.022839379 0.038711973 -0.045654465 0.005262555 -0.011036911
0.008593242 -0.021852313 -0.03897548 -0.018727459 -0.06684881 -0.037613925 0.023113757 0.051131755
-0.08653002 -0.00673376 -0.002606629 0.0064282487 0.016169874 -0.042694654 0.01751423 0.013658176
0.061541233 -0.036487877 -0.039803267 0.06857854 -0.010463309 0.044906758 -0.06017067 0.0057595302
-0.052203283 0.054508008 -0.0256879 0.13208075 -0.017008439 -0.016892176 -0.01459118 0.037527055
0.090035364 -0.07101897 -0.010923901 0.003999722 -0.024188168 0.02639197 -0.025742844 0.0021457719
0.01262844 -0.008216272 -0.025272435 0.026902935 0.03214365 0.014391645 0.045663178 0.017708436
0.025969766 -0.028391728 -0.085074864 -0.020376202 0.0151389865 -0.054967336 0.01073808 0.08536278
0.101582244 0.0049545947 0.044577904 0.06969227 -0.05774893 -0.10830287 -0.009442317 0.009725428
-0.14594688 0.008156272 -0.0034147163 0.06846379 -0.0180151 -0.050655074 0.030028148 0.064399965
0.050879207 0.03291936 0.010511446 0.07977029 0.065475516 -0.0076404167 0.033177596 0.027779749
-0.05988496 -0.016248591 0.022885215 -0.02719423 0.0479459 0.050312314 -0.01663525 -0.015361533
0.0012096636 0.03135073 -0.034685142 -0.091416 -0.027053839 -0.012842806 -0.005207803 -0.053512607
0.04322271 -0.016747072 -0.013400665 0.024942877 0.012553714 0.0041106064 0.030861659 0.02151286
-0.047722958 -0.027880333 0.010607946 -0.004631114 -0.12082833 0.037661478 0.019981584 -0.14057861
0.008215662 0.006476601 0.026353111 -0.04351999 0.044314723 0.028605403 0.032633673 0.03027827
0.024744723 -0.13173375 0.01367147 0.047104616 0.07936516 -0.04925888 0.09067922 0.034949902
0.0533989 0.069179595 -0.018684667 -0.0562283 0.022396011 -0.011687734 0.00063953316 -0.07659119
0.0130367335 0.0796023 -0.06673805 -0.047749806 -0.039073452 0.009075569 0.011711231 0.04153252
00000000: 9801 3b3c c907 f5bc 861e 6b3d f91a debc
00000010: 7f06 8c3c a885 643c 40bd e7bc fc2c a7bd
00000020: 835e d6bc 418a 18bd ec06 07bd edc8 903b
00000030: 1fe1 1e3d 4050 683c 733c cbba c961 c6bb
00000040: ede6 f73b dc00 353d cda3 1cbc 2e70 74bd
00000050: a1d5 a0bc 70fc 6d3c 9043 f03c d402 1c3b
00000060: 5d64 1a3d 2e9d 243d 5b4c 0fbd d06f 9bbc
00000070: 7019 833c 520b 10bd e45c ff3c ba82 5bbd
00000080: 966d 903a 0d5c 80bd 8911 4d3d 246c 813c
00000090: 8d4a 98bc 1b91 b53d 8898 0eba 9682 1a3d
000000a0: 83a3 92bc d3f7 a8bd 863e 893c 4207 023b
000000b0: 4a00 4dbd 0715 53bd 9d7b 0ebc 84f2 4abd
000000c0: 8f8d 543b a76f 27bd 1b34 fe3c a013 abbc
000000d0: fd6b d7bc 6924 cfbc 3a28 623d d9b5 dd3d
000000e0: 0c06 ec3c 7b10 513d c6ba b2bc 9b72 c7bc
000000f0: 7f00 f3bb 8145 fb3b 26f9 4d3d 9494 833b
00000100: 7671 0cbc fba5 a13d 1f40 dabc 9801 273b
00000110: 5a2c f3b9 b07f 41bd c6d0 8bbb 631b fe3c
00000120: 8a87 9f3d bcbf 3d3d 331d 453d 6d02 e83c
00000130: 5ba2 c53c 48a2 413c 1eda 8f3c 5b01 8cbd
00000140: f738 92bd 707f 183d 2c29 08bd a4e0 0fbd
00000150: ff0b d6bd aa0d cb3d d955 62bd d61f 203c
00000160: 7505 e3ba d73d 803c bbae cfbc 0a08 633c
00000170: 6603 42bd b2e7 b1bc 2b0b 563d 3e11 75bc
00000180: 154f 24bd c5f3 da39 ca19 6ebb 8852 3bbc
00000190: bb62 4d3c fdc2 1cbd 9692 2c3c 3359 1e3d
000001a0: 34c2 693d 2d4e fc3c a2c9 9abd a619 bbbc
000001b0: 7290 1e3d 2d00 3bbd 8371 ac3b 29d4 34bc
000001c0: abca 0c3c 9f03 b3bc c1a4 1fbd 546a 99bc
000001d0: 07e8 88bd 0f11 1abd 1059 bd3c 886f 513d
000001e0: a736 b1bd dfa6 dcbb fad3 2abb 0fa4 d23b
000001f0: af76 843c 97e0 2ebd 017a 8f3c 8bc6 5f3c
00000200: a912 7c3d 5074 15bd c008 23bd e872 8c3d
00000210: 4c6e 2bbc 26f0 373d 8575 76bd 71ba bc3b
00000220: 1cd3 55bd ca43 5f3d 6e6f d2bc 2d40 073e
00000230: 4855 8bbc 7661 8abc d80f 6fbc f8b5 193d
00000240: 7664 b83d 6572 91bd 29fa 32bc 1a10 833b
00000250: 4426 c6bc f933 d83c a8e2 d2bc 14a0 0c3b
00000260: 84e7 4e3c 8b9d 06bc 2308 cfbc 8b63 dc3c
00000270: 0fa9 033d efca 6b3c 5009 3b3d 4811 913c
00000280: 8cbe d43c c595 e8bc bb3b aebd feeb a6bc
00000290: 8309 783c 6e25 61bd c6ee 2f3c aed2 ae3d
000002a0: 5a0a d03d 275a a23b 5297 363d d2ba 8e3d
000002b0: 248a 6cbd e5cd ddbd f3b3 1abc 6757 1f3c
000002c0: 1973 15be e2a1 053c 6fc9 5fbb be36 8c3d
000002d0: 6794 93bc b27b 4fbd 97fd f53c 21e4 833d
000002e0: b766 503d 73d6 063d 3338 2c3c 9b5e a33d
000002f0: 0718 863d 765c fabb 3be5 073d 5b92 e33c
00000300: ef49 75bd c41b 85bc c679 bb3c 6fc6 debc
00000310: ec62 443d 4914 4e3d a646 88bc f0ae 7bbc
00000320: 938d 9e3a a069 003d 0212 0ebd 5038 bbbd
00000330: 03a0 ddbc a26a 52bc 38a6 aabb 0930 5bbd
00000340: 4c0a 313d 2831 89bc 768e 5bbc 0155 cc3c
00000350: 18ae 4d3c 44b2 863b 97d1 fc3c bd3b b03c
00000360: 2679 43bd 4c65 e4bc f3cc 2d3c 9ac0 97bb
00000370: d874 f7bd ec42 1a3d 6bb0 a33c d7f3 0fbe
00000380: fc9a 063c ab39 d43b 7be2 d73c 0442 32bd
00000390: 5b83 353d e155 ea3c e3aa 053d 220a f83c
000003a0: 72b5 ca3c 36e5 06be 4dfe 5f3c c5f0 403d
000003b0: 338a a23d aec3 49bd 07b6 b93d a127 0f3d
000003c0: ceb8 5a3d 08ae 8d3d 9610 99bc a54f 66bd
000003d0: d777 b73c e97d 3fbc 58a6 273a d8db 9cbd
000003e0: 0698 553c 8806 a33d f5ad 88bd 4d95 43bd
000003f0: 7c0b 20bd b2b1 143c 77e0 3f3c 011e 2a3d

bias f4 [12]
-0.07646499 0.117682695 -0.041459884 0.13367036 -0.020762006 0.12189932 -0.2304811 0.17235982
0.025960566 0.1599268 0.12854978 0.07655789
00000000: ad99 9cbd a003 f13d d7d1 29bd e2e0 083e
00000010: 1515 aabc 5aa6 f93d 3d03 6cbe 187f 303e
00000020: 41ab d43c dac3 233e 8ea2 033e 62ca 9c3d
